ChessBot.onnx (onnx, 81639 bytes, 4 tensors)

onnx::MatMul_21 f4 [260, 30]
000000 6f 04 74 bd eb 03 cd 3b 77 ae 9b bd da e3 13 be
       -0.05957454 0.0062565706 -0.07601636 -0.14442387
000010 0e 39 25 be 9b 97 36 3e d2 27 b4 bd b7 d8 01 be
       -0.16135046 0.1783127 -0.087966576 -0.12680326
000020 a1 7e 6c bd 5a 61 f0 3c 9f 94 2a 3c 41 82 4b 3e
       -0.05773795 0.029343296 0.010411411 0.19873907
000030 c3 e3 cf bd 0d 3c cb 3d 1b fa ab 3c bb 41 31 bd
       -0.10150864 0.09923563 0.020993283 -0.043275576
000040 59 c6 df bd f3 95 f1 be e9 f2 d9 bc 74 0c af 3d
       -0.10926504 -0.47184715 -0.026605086 0.08547297
000050 d5 86 09 be 68 85 6b 3e 6a 1c ca 3d cd f2 b4 3d
       -0.1343034 0.23000109 0.09868701 0.08835373
000060 14 69 d9 bd c8 84 43 3c e5 fb e9 bd a3 bc 07 3d
       -0.10615745 0.011933513 -0.11424998 0.033138882
000070 65 01 26 3e 07 17 24 3e 2f 67 02 bd 0a 2d 02 be
       0.1621147 0.16024409 -0.031836685 -0.12712494
000080 81 26 c0 3d 7c d3 f0 3d b8 d7 8b bc 7f 86 cd bd
       0.09382344 0.117590874 -0.017070636 -0.10035419
000090 31 ef 86 3d a0 f3 e8 bc 91 ea e4 bd e7 54 77 3d
       0.06588591 -0.028436482 -0.111775525 0.060383704
0000a0 8a b8 d9 bd 31 0c 0b be 9d 15 1c 3d fa bf 12 3e
       -0.10630901 -0.1357887 0.03810655 0.14331046
0000b0 71 3c e6 3d cc 3d e5 bc 2e 7a 30 be 2f 78 08 3e
       0.11241997 -0.027983569 -0.17234108 0.13327096
0000c0 b9 f7 6d be c8 20 df 3d 89 9f a3 bd 2c 98 9c be
       -0.2323903 0.108949244 -0.07989413 -0.30584848
0000d0 27 b6 4e 3d d3 73 47 be c3 28 f6 3d 20 ca 99 bc
       0.050466683 -0.19477777 0.120194934 -0.018773139
0000e0 08 55 16 be 73 b3 a9 bd 66 15 9b 36 81 c6 b8 3c
       -0.14680874 -0.0828618 4.621851e-06 0.022555592
0000f0 36 31 b4 bd 8b ab c2 bd 02 61 5f 3d 49 22 88 bd
       -0.08798449 -0.095053755 0.054535873 -0.066471644
000100 e1 8a 99 3c dd 66 91 bd 15 ce 31 be 3f bc 8f bd
       0.01874298 -0.07099698 -0.1736377 -0.07018327
000110 ea 07 90 3c ac 25 77 bd 60 9f 98 3d 3d 6c ce bd
       0.017581899 -0.06033866 0.07452273 -0.100792386
000120 d2 4e 94 bd 2c 16 ce 3d 75 97 13 be bc 95 7c bd
       -0.07241596 0.10062823 -0.14413245 -0.061666235
000130 fe c7 7b 3c c0 89 cb be 93 d5 f4 bc f6 4d 29 3e
       0.015367506 -0.39753532 -0.029886996 0.16533646
000140 48 a1 6d bc ad d9 96 3b 17 16 30 bd a2 51 b9 3c
       -0.0145037845 0.0046035857 -0.042989817 0.022621933
000150 81 b7 a1 3c 60 78 8a bc b9 71 dd bd d2 a1 0c 3d
       0.019740822 -0.016903102 -0.108127065 0.03433401
000160 b8 74 8b 3c f5 35 8b bd c0 e0 4b 3d ae 53 b9 bd
       0.01702343 -0.06797401 0.049774885 -0.09049164
000170 a7 f9 e5 bd 18 e6 46 bc 7c e4 8e bc 01 26 c4 3d
       -0.11229258 -0.01213982 -0.017442934 0.09577561
000180 f4 a2 cc 3c aa 64 3a 3d cd e5 39 3d 4c 6a 35 3d
       0.024980046 0.045506157 0.04538517 0.044290826
000190 ab 10 0e 3d 2d e0 c0 3c 49 3a ad bd a8 1d 54 3e
       0.034683865 0.023544395 -0.08458383 0.20714438
0001a0 30 b2 b6 bc d7 89 9c 3c 38 2a 3e 3d af 8c ad 39
       -0.022301763 0.019108696 0.04642698 0.0003310195
0001b0 73 c0 8d b9 35 94 df 3c 9b eb a8 3d 24 b1 ab 3d
       -0.00027037002 0.02729235 0.08248063 0.08383396
0001c0 f6 fe 11 3d 94 0b c7 3d 77 b5 bc 3c 7f 9c d8 3c
       0.03564354 0.09719005 0.023035748 0.02644181
0001d0 ac 7f 90 3d b6 bd 05 3d 5d fd 90 ba ed 2c 5f 3d
       0.070556015 0.032651626 -0.0011061836 0.054486204
0001e0 d3 90 0c bd 2e 39 8d bd d9 46 62 3d 5b f7 9a 3d
       -0.034317803 -0.06895672 0.055243347 0.075667106
0001f0 ef 13 75 bd ca 51 0e bd a4 9c b2 bb 59 5f 0d bd
       -0.059833463 -0.03474597 -0.005450802 -0.03451476
000200 e3 38 a9 b9 74 42 04 3c de 8f 78 bc 54 35 08 3e
       -0.00032276576 0.008072484 -0.015171019 0.13301593
000210 13 75 ae bd ec 49 5d 3e 66 11 4d 3e f6 b1 ee bd
       -0.08518424 0.2161023 0.20026168 -0.11655037
000220 44 02 73 be ce 37 d9 bd 04 f8 27 be 97 00 61 3e
       -0.23731333 -0.10606347 -0.16403204 0.21972881
000230 ba e5 27 be 2d b4 31 3e f8 00 50 3d 81 d0 89 bd
       -0.16396227 0.17353888 0.050782174 -0.06729222
000240 70 0a 41 bc 74 ff 2f bd 17 02 3f be 88 b0 43 bd
       -0.011782274 -0.04296823 -0.18653141 -0.047775775
000250 8f 21 ec 3b 41 7a 3f 3e 0b b7 c9 bc 03 62 2c 3d
       0.007206149 0.1869898 -0.024623415 0.04208566
000260 c2 ed ef 3d ee 07 0d be fe 18 30 bd ab da f1 bd
       0.117152706 -0.13772556 -0.042992584 -0.11809286
000270 1d 0e 35 be d1 9f 73 bd 3f 06 dc 3d 91 a2 32 bd
       -0.17681165 -0.059478585 0.10743379 -0.043612067
000280 b0 d0 25 bd 63 bd c3 bd c2 4d 15 bc ee 97 4b be
       -0.040482223 -0.09557607 -0.009112777 -0.19882175
000290 67 3a 53 3d 1e 74 1f bd 44 b8 96 bc 68 22 27 3d
       0.05156937 -0.038929097 -0.018398412 0.040804297
0002a0 77 33 8c bd f2 a2 da 3a c6 f0 61 bc 6b b3 43 3e
       -0.06845754 0.0016680642 -0.013790315 0.19111411
0002b0 ed 4b cb 3c d3 5a 87 bd 30 bc e8 3d 0f c8 95 3d
       0.024816478 -0.0660912 0.11364019 0.07313549
0002c0 7a c0 2f 3e 9e 2a bc 3d b3 9c 2a be cd 54 47 3d
       0.17163268 0.09187816 -0.16661339 0.048664857
0002d0 a0 12 6a 3d df d1 3d ba d4 24 ae 3a 88 0d 96 3c
       0.05714667 -0.0007241051 0.0013286122 0.018317
0002e0 0b 64 07 3e 9d b6 68 bc 3f b8 22 bd 40 1b 12 3a
       0.13221757 -0.014203695 -0.039726492 0.00055735186
0002f0 87 e0 cd 3d a5 e1 40 3d a9 a4 09 3d e7 b6 c4 bc
       0.10052591 0.04709019 0.033604298 -0.024012996
000300 f5 c9 8c bd ae 72 94 3c 93 03 89 bd 76 77 40 3d
       -0.06874458 0.01812109 -0.06690135 0.046988927
000310 2f 40 2b 3d 2f d7 52 3d 78 2f 88 3c d9 b0 96 3d
       0.041809257 0.051474746 0.016624197 0.0735795
000320 8c 0a f2 3c 63 0c c6 3d 57 81 84 bd df 66 75 3b
       0.029546045 0.09670331 -0.06469982 0.003744535
000330 b5 90 85 bd 6b bf a7 bd 51 8c 92 bd 47 14 ae bd
       -0.06521741 -0.08190807 -0.071556695 -0.08499961
000340 bf 30 83 bd 63 c0 e8 bb 6f d0 b3 3c ee 94 23 3d
       -0.06405782 -0.0071030124 0.021949975 0.039936952
000350 7c 49 3d 3d 77 b4 87 3c 86 9f 52 3c 37 c6 ab bd
       0.04621266 0.016565545 0.012855416 -0.08387416
000360 c8 26 f9 bb bf b8 f2 bc a9 d9 b0 bc 0d 02 26 bb
       -0.0076035 -0.02962911 -0.021588163 -0.0025330812
000370 29 e0 82 bd c4 6d 10 3d 8e cc 68 3d e9 58 68 bd
       -0.063904114 0.03526093 0.056835704 -0.056725416
000380 f4 e4 0a 3d 39 3d 63 bd b5 12 04 3b 29 d1 bb ba
       0.033909753 -0.05547831 0.0020152752 -0.0014329302
000390 21 93 4b 3c f1 6d f6 3d bf 69 96 3d 7e 42 9b bc
       0.012425215 0.120326884 0.07344388 -0.018952604
0003a0 d0 f9 62 bd 4a 9a 45 bd 38 ee 9f 3d 75 87 93 3b
       -0.05541402 -0.048242845 0.078091085 0.0045022317
0003b0 9a 92 93 3d 97 55 11 bd 0f cd eb 3d ca b1 83 3d
       0.072056964 -0.035482015 0.11513721 0.06430395
0003c0 c1 8d 4d be e3 53 12 be 75 b0 91 3d 93 4b a1 bd
       -0.20073606 -0.14289813 0.07113735 -0.07875743
0003d0 e9 c4 2f bd f2 66 1b be fb 34 fd bd 79 71 ba bc
       -0.042912398 -0.1517599 -0.12363621 -0.022759186
0003e0 91 e9 02 3d 11 2f 44 be be 70 ab bc f7 ac 6f bd
       0.031961028 -0.1915858 -0.020927783 -0.05851456
0003f0 8c 86 63 be 4b 3e f4 3d 68 40 52 3b a7 13 16 be
       -0.22219294 0.11925944 0.0032081846 -0.14655934

onnx::MatMul_22 f4 [30, 15]
000000 74 89 03 be 08 2d 8b 3e 5e 03 44 bd 26 10 1b 3d
       -0.12845403 0.27182794 -0.047854774 0.037857197
000010 bd b9 47 3e 85 3f 4c 3e 05 cb 9e be f4 fd 7e 3c
       0.19504447 0.19946106 -0.31014267 0.015563477
000020 98 cd 27 3d f5 d2 22 bd 2d 6a f4 3b 71 d8 7f bc
       0.040967554 -0.039751966 0.007458946 -0.0156155685
000030 44 1f 0a 3e 9c 21 82 3e 0d 17 3b be 57 57 83 3e
       0.1348849 0.25416267 -0.18270512 0.25652573
000040 42 be 6b 3c e4 9a 31 3d 07 40 3d 3e a5 ab 89 bd
       0.014388623 0.043360606 0.18481456 -0.06722192
000050 1e 4d d5 bb 1f d7 ce bd d1 dc 48 3e 34 fb 00 3e
       -0.006509437 -0.10099625 0.19615485 0.12595826
000060 86 91 19 be 90 67 45 3d 62 c2 b0 3d 3c 52 34 3e
       -0.14996919 0.048194468 0.086308256 0.17609495
000070 0a de 5a bd 45 6a 5e bd c1 a3 61 3e e1 80 dd bd
       -0.05343441 -0.054300565 0.22035123 -0.10815597
000080 6f ed 03 be 71 15 f0 3d e1 40 90 3d 8b c7 45 bc
       -0.12883542 0.117228396 0.07043625 -0.0120715005
000090 45 d1 33 3e 0d 36 03 3e 64 ed c4 bd ce 55 8d bd
       0.17560299 0.12813587 -0.09615591 -0.069011316
0000a0 f6 d8 85 3e 3d b3 31 3e 7d 62 cb bd 3e 28 a3 bd
       0.2614209 0.1735353 -0.099308945 -0.0796666
0000b0 3f e9 ed bd 5b 6d 5e 3c 5c 3c db 3e 06 b1 1d be
       -0.11616754 0.013575877 0.42819488 -0.1539956
0000c0 2e 6d 7d bd 90 17 42 3d 3b 5d 4b be c8 64 4c be
       -0.0618717 0.047385752 -0.19859783 -0.1996032
0000d0 7e e5 f0 bd f2 82 19 bd 70 85 e7 3d 3f 6b 54 3e
       -0.11762522 -0.037478395 0.11304748 0.20744036
0000e0 ae 89 60 bd 72 ac 10 bd ed a3 1a 3e ea f2 c8 bd
       -0.0548188 -0.035320707 0.15101595 -0.09811957
0000f0 2f 96 a0 3e 98 12 97 3d 18 8e 12 3e c2 90 4f 3e
       0.3136458 0.07376593 0.14312017 0.20270064
000100 e4 43 bd 3d b4 ed cf bd 87 de 33 3e 16 c7 bf 3d
       0.09241465 -0.1015276 0.17565356 0.093641445
000110 35 4b 0d be 3a 72 92 3d f3 79 6d be 38 5b a2 3e
       -0.1379822 0.07150693 -0.23191051 0.3171022
000120 27 01 d9 bc 3d c7 06 be 28 fb 0b bd 29 52 40 3e
       -0.026489807 -0.13161941 -0.03417507 0.18781342
000130 94 c7 11 be 22 e0 b1 3d d6 f4 0e 3e 5a a7 31 be
       -0.1423629 0.08685328 0.13960585 -0.17348996
000140 70 a0 8c 3e 91 70 44 3e c6 4f 12 3d 73 9b 8d be
       0.27466154 0.19183566 0.03572061 -0.2765766
000150 fc db 35 be 37 0a 48 3d 06 91 53 3d 28 81 6a 3e
       -0.17759699 0.048837867 0.051651977 0.22900832
000160 58 76 94 be 47 41 e8 bc 01 a2 86 bd 70 da c2 3e
       -0.2899654 -0.02835144 -0.065738685 0.3805728
000170 26 32 26 be 08 85 8d bc 55 94 93 3e 5e 95 51 3c
       -0.16230068 -0.017275348 0.28824106 0.01279196
000180 90 d3 21 be ab 42 18 3d d0 45 3c 3d 72 9f 24 3e
       -0.15803361 0.037172955 0.045965016 0.16076449
000190 59 04 34 3d 9f 06 a8 bd 17 ce 46 be e6 73 33 3c
       0.04394946 -0.08204388 -0.19414555 0.010952925
0001a0 40 c8 05 be cf f2 14 3a 0d 1d 9a be f6 6c 4c 3e
       -0.1306467 0.0005681933 -0.3010029 0.1996344
0001b0 e9 45 79 3e c1 f0 0a be 66 33 60 3e 06 c1 ce bc
       0.24343075 -0.13568403 0.21894607 -0.025238525
0001c0 15 41 24 3e 31 e3 32 be 03 db 26 be e7 af ef bd
       0.16040452 -0.17469479 -0.16294484 -0.117034726
0001d0 08 bf f1 3c 31 44 1e 3e 98 35 27 bd 35 70 61 3e
       0.029510036 0.154557 -0.040822595 0.2201546
0001e0 06 dd 94 bc e4 5b 61 3c d9 ba 75 be d9 27 16 3e
       -0.018171798 0.013754819 -0.23997058 0.14663638
0001f0 a3 8c 07 3e f4 f2 e4 3d b7 8e c4 bd 79 53 92 be
       0.13237242 0.11179152 -0.09597533 -0.2857931
000200 f8 fc a7 3e 13 80 8b 3e dc 17 b7 3e 2e 6f 6d bd
       0.32810187 0.2724615 0.3576039 -0.057967357
000210 df 91 20 be 0f 62 3d 3e 88 e4 d1 3c 8a fb e8 bd
       -0.15680645 0.18494438 0.025621668 -0.11376102
000220 d3 09 e9 3c 2b 9f 8f 3c bc be 25 3e 67 09 a7 3d
       0.028447067 0.017531952 0.1618604 0.0815609
000230 c7 b9 49 3d 8c ab 97 be 94 d3 f9 3d 7e 75 3c be
       0.049249437 -0.29623067 0.121985584 -0.18404195
000240 b5 aa 88 bd 66 8a 53 3e 2e 7f a1 be 94 f2 3c bd
       -0.06673185 0.20658264 -0.31542343 -0.046129778
000250 76 c9 2e be 6e a7 20 be 1b 44 35 bd 04 9e e6 3d
       -0.17069039 -0.1568887 -0.044254404 0.11260608
000260 8d b7 11 be c1 f2 36 3e c3 52 84 3e 3b 9c 78 bd
       -0.14230175 0.17866041 0.25844392 -0.060695868
000270 1c 43 85 bd 83 8b d8 3a 0e 30 1d 3e dc f5 40 3e
       -0.06506941 0.001652107 0.15350363 0.18843788
000280 49 a4 08 3e 2b 93 79 3e 60 45 f6 3d a3 02 5e 3e
       0.1334392 0.24372546 0.12024951 0.21680693
000290 fd 69 a8 bd 90 08 8b 3e 67 2c 56 3b da 59 39 3e
       -0.08223341 0.2715497 0.0032680274 0.18100682
0002a0 a3 8d ba 3d bd 01 38 bd 25 26 c8 bd 20 f2 64 3e
       0.09109046 -0.044923533 -0.097729005 0.22357988
0002b0 8b dd 19 3e c2 df e9 bd a3 8d 60 be c8 b6 48 be
       0.15025918 -0.114196315 -0.2192903 -0.19600976
0002c0 c9 1e bd bc 85 54 a4 3e 2b 37 1a 3d f9 92 be bc
       -0.023085969 0.32095733 0.03765027 -0.023263441
0002d0 c1 2d 49 3e 76 97 7f be f1 37 50 3e 81 81 04 bd
       0.1964636 -0.24960122 0.2033384 -0.032350067
0002e0 f2 3a 3f 3e 48 d0 e6 3d ff db 10 be c2 8a db 3d
       0.1867483 0.11270195 -0.14146422 0.10719825
0002f0 41 88 07 be a2 96 19 3e a8 38 29 3c 00 3c ae 3d
       -0.1323557 0.14998868 0.010328449 0.08507538
000300 68 71 4a 3e 1f 2a 2d 3d ab 3e bb 3d 97 47 4a 3e
       0.19769824 0.042276498 0.09142812 0.19753872
000310 df 90 69 3d 99 da 20 3e c2 41 2a 3e 5d 8e 78 3e
       0.057022925 0.15708388 0.16626647 0.24273057
000320 39 ef 82 3d 7d 8d 02 3e 14 0c 97 bd f2 e6 2e 3e
       0.06393284 0.12749286 -0.073753506 0.17080286
000330 a8 d2 06 3e 41 b7 58 3e 66 a1 a9 bd d1 be 90 bd
       0.13166296 0.21163656 -0.082827374 -0.07067645
000340 6a 1e 64 3e 02 d8 83 3e e4 41 8e 3d 68 36 c8 3e
       0.22277227 0.25750738 0.069461614 0.3910401
000350 1a 6c 2f bd e7 92 cb 3d d0 09 48 3e ad b5 29 3c
       -0.042827703 0.09940129 0.19534993 0.010358256
000360 e7 53 69 3c 7f 70 77 be 37 73 27 3d 49 5b 58 bc
       0.014241195 -0.24164008 0.04088136 -0.013205358
000370 6a b9 4b 3e 95 02 9f bd 4f fa 2c be 6f 76 2c 3e
       0.19894949 -0.07764164 -0.1689236 0.16842054
000380 2f de 7c bd 94 4e 72 3d 0e ee 12 be 95 2a e7 3c
       -0.06173533 0.05915697 -0.14348623 0.028218547
000390 cb c6 21 3e b5 dc 39 be 48 49 19 bb 4f 2a 41 3e
       0.1579849 -0.181506 -0.0023389626 0.18863796
0003a0 42 70 4a 3e 18 75 28 bd 0b 38 70 be ae e0 45 3c
       0.19769385 -0.041127294 -0.23458879 0.012077494
0003b0 f1 04 29 3e 62 32 fa 3d 71 cc 93 be 22 77 85 bd
       0.16505791 0.12216641 -0.28866914 -0.065168634
0003c0 ee c4 62 be f4 85 86 3d 5a 16 83 bd a3 1d 7f bd
       -0.22145435 0.06568518 -0.064007476 -0.062284123
0003d0 c9 b7 1f be 06 e0 b3 3e bc d2 82 be f6 55 26 be
       -0.15597452 0.35131854 -0.25551403 -0.16243729
0003e0 16 4a f8 3c af 58 73 3e cc 4f 15 3e d5 25 ca bd
       0.030308764 0.23764299 0.14581221 -0.09870497
0003f0 5f d7 eb 3a 52 97 92 3c db e1 e4 bd 63 da 91 be
       0.0017993263 0.01789442 -0.11175891 -0.28486928

onnx::MatMul_23 f4 [15, 5]
000000 cf e7 03 3e 2e 5a 41 3e 0e 07 8c 3e 69 33 bf 3e
       0.12881397 0.18882057 0.27349132 0.3734391
000010 ff b6 d8 bd 04 da 2f 3f 6d 56 d2 bd 3a 83 45 bf
       -0.10581779 0.6869204 -0.10270391 -0.7715336
000020 11 75 4a bf 0e 1f 5a 3f 6d 1c d2 be 92 be 40 3d
       -0.7908488 0.85203636 -0.41037312 0.047056742
000030 cb 26 c5 3e c3 70 10 3e 86 ba ac 3d a4 34 7a 3e
       0.3850616 0.14105515 0.08434014 0.24434143
000040 71 7c e5 3b 66 fb 3a 3d 0e f1 b0 3e 54 de d8 bd
       0.00700336 0.04564991 0.3455891 -0.10589281
000050 6f 8a 70 3e b4 86 a6 3d 9d 80 0d 3e d0 75 38 bd
       0.23490308 0.08131161 0.13818593 -0.04503423
000060 1d e8 47 3e 06 ea 85 bd 4e 27 21 bf 4f 3e bf 3d
       0.19522138 -0.06538777 -0.629506 0.09338056
000070 d3 e7 4f be ee 1e 68 3c 3c 3e 34 bf 81 a0 f9 3e
       -0.20303278 0.01416753 -0.7040746 0.48755267
000080 ec 41 0a 3f 0b 09 3b 3f 2f 5f 0c bf 2f fe 2e be
       0.5400684 0.73060673 -0.5483274 -0.17089151
000090 6a b8 2e 3e 96 9f de 3e 4b 23 60 3e 46 8f 61 be
       0.17062536 0.4348113 0.21888463 -0.2202731
0000a0 43 a7 d9 3e 6d e4 d4 bc a5 fb 77 be 93 c0 c7 bd
       0.42510423 -0.025987828 -0.24217089 -0.097535275
0000b0 60 e0 dd 3c 70 79 d2 3d 46 cc 49 bd c2 7f 0e be
       0.02708453 0.102770686 -0.049267076 -0.13915923
0000c0 24 dd 52 be d5 18 a5 3e 27 3a fd 3c 42 58 9e be
       -0.20592171 0.32245508 0.030911518 -0.3092671
0000d0 cf b9 35 3e 14 25 07 bd 96 e1 a9 3e 85 64 32 bf
       0.17746662 -0.032994345 0.3317992 -0.6968463
0000e0 52 69 3c 3f c3 b2 f8 3e 1f 8e 38 3f 5f 55 07 bf
       0.73598206 0.48573884 0.7209186 -0.5286464
0000f0 e6 ed 97 be 1a cd 63 3e 94 0e 87 3e 05 cc f1 3d
       -0.2967369 0.22246209 0.2637831 0.11806492
000100 f0 4d 34 3c e9 d0 71 3e 07 04 13 3e 12 a8 7b be
       0.01100491 0.23614849 0.14357005 -0.24575832
000110 0b f9 2f bd 05 49 8a 3e 19 18 b5 be df 8a a9 3e
       -0.042962115 0.27008834 -0.35369948 0.33113763
000120 fd dd c3 3e f0 b1 af 3e ec 1c 00 bf
       0.382553 0.34315443 -0.5004413

onnx::MatMul_24 f4 [5, 1]
000000 e2 01 3d bf 6d 37 a5 3f 23 60 e2 3e 9b 26 3a 3f
       -0.73831 1.290754 0.44213971 0.7271516
000010 4b 68 48 bf
       -0.7828414
