ChessBot.onnx (onnx, 109790 bytes, 4 tensors)

onnx::MatMul_21 f4 [770, 20]
00000000: 70a5 af3d 2d71 a03d 1a48 5dbd 905d 9a3d
00000010: 9732 dabd 2cc9 81bd bfc7 cc3d 0163 b4bd
00000020: 0d2b 23bd 40dd 76bd dd00 81bd 6968 cf3d
00000030: 8bfb 563d b494 2ebd 9820 b4bc 264b 333d
00000040: d8f8 27bd 09b6 53bd 78f9 d13d efc1 eebc
00000050: 768f d53c 2ffa f83c 6365 053b 9bbe 963d
00000060: 154b 3abd f41f 01bd c87d 513d 4f93 8f3c
00000070: fcd5 b9bb 873b 91bc 99e7 99bd 1ff6 623d
00000080: f039 553d 89b5 3cbc 130e 06bd d3b5 6f3c
00000090: 41d8 2dbd 0119 39bd 86b7 7b3d 0a43 f23a
000000a0: a671 2f3d 88eb 1b3d c1ba 3ebd d04b 253d
000000b0: fa17 bebd f39c aebd 33b7 7b3c fe9f 65bc
000000c0: 5ab4 34bd 2506 4bbd af7f 62bd 1430 eabd
000000d0: 9f1f 893d 8916 1f3d ff7c c3bd 950e 923d
000000e0: 5526 52bc 82b6 7fb9 c7f8 de3c 77a0 5cbd
000000f0: 13bf 1d3e c91f c33d 81a1 43be 75d9 0e3e
00000100: 3d23 88bd b988 36be f1b0 1c3e e35c aabc
00000110: f4a7 9ebd 0fe4 fbbd f807 d6bd 9acd 2ebc
00000120: 3818 ee3d 38d4 8bbd cdec 3ebe 692d 193e
00000130: 6ac2 17be 1876 9ebd 9b9a f03d 7fbd 15be
00000140: 6a90 15bc deec 29bd 0e26 5e3d 5c76 343d
00000150: 2e0b 893c 8ecf 80bc 2e14 1a3d 144c 15bb
00000160: cccd 393d a2b1 c73b 1f68 193d 404a 38bd
00000170: 2b35 b93c b314 cf3c 1ba6 4bbc f06c ab3b
00000180: 51d6 a33c 5ff5 41bc 935f 94bb 2ab0 2b3b
00000190: b5cd 03bd 1f4b ee39 2176 10bd bcda 08bd
000001a0: de84 7f3c a873 c83c 517e f03c dee1 463c
000001b0: b073 0cbd 9d0c 8bbb b898 453c b121 76ba
000001c0: 926d 0f3d c3b9 b03c d742 893c 44fb dc3b
000001d0: 71fd 8abb df6a b2bc 7d7c 803c 5e0e b5bc
000001e0: 8567 8dbd 2f98 08bd 2388 a6bd 25b5 ffbd
000001f0: 5e08 7c3e 2b19 c63d cd2f 33be c099 393d
00000200: b7f4 3a3d 44ac af3c 92ec 8c3e ddb0 33be
00000210: 6efe 73bb 5fbd 803e c81c 0c3d a9ad 7ebd
00000220: 989b 76bb ffda 80bd d2c8 cbbd 56ae 333c
00000230: 3a1c 26bd addb d8bd ef42 23be db6e 663b
00000240: 61cb 4d3e 3232 21bd acaf aebd dac7 44be
00000250: 162f fabd 63e7 ecbd 39c2 01be 673b 25be
00000260: 5f2e dfbd 11fc 1cbe 3932 463d 4603 a03d
00000270: ffd3 ef3d 44cb 0e3e 8a2b 58bd e2b9 7fbc
00000280: e943 e0bc c819 dc3b ffcd 9abd 63c4 7dbd
00000290: bbf1 e83d 9eff adba 7644 acbd c427 7cbc
000002a0: 75e1 a8b9 d2e4 d2bd 7e36 b23b a10f 46bc
000002b0: 7843 9fbd aa0e d43b 595b 70bd 3ec3 4c3d
000002c0: fa98 bb3c 5a31 3e3e 1281 a8bd 5ec5 8bbc
000002d0: 4aba 2ebe d528 5bbe 1d4e 3c3e 73cb 43bd
000002e0: 16b2 803e 1550 953d 4d1d 1fbe 3177 7dbd
000002f0: f912 073d 0d6f 343d a111 6b3e ff2a c3be
00000300: 699f 88bd 7611 013e 8ec0 ea3d ee44 3d3c
00000310: 6bc6 8f3d 6023 933d 4d1e 28be b3d0 983b
00000320: 94ab c0bc b9a0 98bd 0bb2 9f3d c93d f13c
00000330: 6a3b d83d 60f5 293d 8d89 0abb 74c6 17bd
00000340: 243c dfbc 7991 f53c b43b f33d f887 cbbb
00000350: ff98 7e3d 11f2 80bd 5f96 cc3b 6f14 3abd
00000360: b843 c43c 2f72 0ebe d967 68bd 1576 8f3c
00000370: b609 60bc 34f6 05bc 0afc 913b c5c6 0ebd
00000380: c713 a53c f6f2 803c e6f5 6a3c 20b7 8a3c
00000390: e3b3 29bc f2f6 053d e13e e13a 9bb0 f63c
000003a0: 6d3d ac3c 0217 f23c 954d 5abc 7fe0 07bd
000003b0: 631b 233c faf5 043d ea18 e3bb 6ef5 a33c
000003c0: e809 9c3d 30a8 c13d e860 61bd 200c 773d
000003d0: b169 1cbe bc46 3ebd 350c 813d 36c2 96bd
000003e0: 4941 f6bc d406 65bd abda dabd 6541 093e
000003f0: 648d 2c3d cd80 33bd 250b c3bd 3f2c 033d
0.085764766 0.078340866 -0.05402384 0.07537377 -0.106541805 -0.063371986 0.09999036 -0.08807946
-0.03983598 -0.060269594 -0.06298993 0.101273365 0.052485984 -0.042622283 -0.021988198 0.04377284
-0.0410088 -0.051687274 0.102526605 -0.02914521 0.026069384 0.030392734 0.002035462 0.07360574
-0.04548176 -0.031524613 0.051145345 0.017526297 -0.005671261 -0.01772858 -0.07514877 0.0554105
0.052057207 -0.011517891 -0.032728266 0.014630753 -0.042442564 -0.04518986 0.06145432 0.0018483114
0.042832993 0.038066417 -0.04656482 0.040355504 -0.09281917 -0.085260294 0.015363502 -0.014015196
-0.04411731 -0.049566407 -0.05529755 -0.114349514 0.06695484 0.03883985 -0.095453255 0.071316876
-0.012826522 -0.00024386685 0.027218236 -0.05386397 0.1540492 0.09527547 -0.19104578 0.13950141
-0.06647346 -0.17825593 0.15301873 -0.020796245 -0.07746878 -0.12299358 -0.10450739 -0.010669136
0.11625713 -0.06827587 -0.1864502 0.14958729 -0.14820257 -0.07737368 0.11748239 -0.14623068
-0.009128669 -0.04148566 0.05423551 0.04405819 0.016728964 -0.01572397 0.0376169 -0.0022780942
0.04536228 0.0060941735 0.037452813 -0.044992685 0.02260836 0.025278425 -0.012429739 0.005231492
0.019999655 -0.011838286 -0.004527995 0.0026197531 -0.0321786 0.00045450867 -0.035268907 -0.033411726
0.015595643 0.024469212 0.029357107 0.012138812 -0.034290016 -0.004243447 0.012060337 -0.00093891757
0.035016604 0.021572953 0.016755505 0.0067438204 -0.0042416384 -0.021779476 0.01568436 -0.022101577
-0.069045104 -0.03334826 -0.08131435 -0.124857225 0.24612567 0.09672769 -0.17498703 0.045312643
0.045643535 0.021444447 0.2752424 -0.17547937 -0.003723051 0.2514448 0.034207135 -0.062177334
-0.0037629362 -0.0629177 -0.09950413 0.010966858 -0.040554263 -0.10588775 -0.15943502 0.003516129
0.20097114 -0.03935451 -0.085296005 -0.19216862 -0.12216012 -0.11567571 -0.12671746 -0.16135941
-0.108975165 -0.1533053 0.04838774 0.07813124 0.11710357 0.13944727 -0.052775897 -0.015608283
-0.027376132 0.0067169406 -0.07558822 -0.061954867 0.113742314 -0.0013275032 -0.084114954 -0.01539034
-0.00032211436 -0.1029755 0.005438625 -0.012088687 -0.077765405 0.0064714747 -0.058680866 0.049990885
0.022900093 0.18573514 -0.08227743 -0.017061885 -0.17063251 -0.21402295 0.18389173 -0.047801446
0.2513587 0.07290665 -0.15538521 -0.061881248 0.032977078 0.04405122 0.22955944 -0.3811874
-0.0667103 0.12604317 0.11462508 0.011552079 0.07020267 0.071844816 -0.16417809 0.0046635508
-0.023519315 -0.074525304 0.07797631 0.029448407 0.10558207 0.041493773 -0.0021139116 -0.037054494
-0.027250357 0.029976593 0.11876622 -0.006211277 0.062157627 -0.062961705 0.0062435116 -0.045429643
0.023958072 -0.13910745 -0.05673966 0.01751236 -0.01367419 -0.008176375 0.004455094 -0.03485753
0.020151032 0.015740853 0.014340853 0.016933024 -0.01035783 0.03270621 0.0017184877 0.030113509
0.021025384 0.029551987 -0.013324161 -0.03317308 0.00995526 0.032461144 -0.00693046 0.020014491
0.07619077 0.09455907 -0.055024058 0.060314298 -0.15274693 -0.046454176 0.063011564 -0.073612615
-0.030060427 -0.055914715 -0.10686239 0.13403852 0.042127028 -0.043824006 -0.0952361 0.03202462

onnx::MatMul_22 f4 [20, 10]
00000000: 735c cb3e fed6 0e3e 0d81 69bd 2e08 59be
00000010: c9b0 353e e424 b4be fe14 c4be 8468 46bf
00000020: 9145 2abf 9331 4d3e ba70 c63e f3c4 683e
00000030: dc95 b63d b053 04bf 2752 3a3e b7fc e83d
00000040: e884 4e3d 2a84 23bd e22c db3d a9bb 14be
00000050: 4e96 dcbe 7b9f 5cbf 6427 32bf 5065 bcbd
00000060: e8fa f0be 6be6 6f3e 980f 94bb 2ee7 b43e
00000070: 385d 03be e565 383e cbc0 9a3e 81ef 29bf
00000080: b29f 0dbf 4d81 24bd ea45 733e 6ebb 85be
00000090: 9648 7b3d cd6c d7be 6dd5 24bf 4d51 0c3f
000000a0: c777 babe 19b7 59bf 37b1 c4be 494a 803e
000000b0: 7a56 513e 3c45 f33e 7b45 fa3e 0ce2 7bbd
000000c0: 051c 943e ae88 55be fe3f d9bd 8dfe 9c3f
000000d0: 468d a83e 1adb 073f 5092 63bf e435 b93e
000000e0: e423 89be b592 0a3f 9d4b 02bf 890a b6bd
000000f0: 6e75 183d 33c1 9dbe e471 fabd d4ca 5abf
00000100: f182 6c3e 6622 90bc 4452 3bbd 017f 34be
00000110: 5416 db3d 64b4 d23e a4bd 50be daab 93be
00000120: 1b39 3abe f907 62be 3122 02be ed24 9f3e
00000130: ccd9 ccbe 4415 dabc 3a66 abbe 6f0d 1a3c
00000140: 5889 6dbe 9b8c 50be c905 f3bd 19d5 2aba
00000150: fc62 77be 1808 54bd 1a31 b4be 3ef4 8e3e
00000160: 4857 a8be c412 0ebe 8729 92be 0505 2bbe
00000170: 00e7 e4be 3943 183e 591c 44be a7e7 ffbd
00000180: 5b17 7ebe 90e0 60bc 4f97 78bd eb5f 503d
00000190: c601 a8be 4956 77bf b665 5abe 1a8a 6e3c
000001a0: b50b 9cbc e708 963e 0cbf 3d3e 8ceb 01be
000001b0: c999 adbc 36e3 0abe 8d9e a23e 3a32 c93e
000001c0: 871d cb3e 0388 f1bd 0c86 24be 7de4 783d
000001d0: a6e1 2abe cb38 21be bf96 d33e 86d8 543e
000001e0: 68ee 4d3e 318c 09bf 3241 a6bd 487c dfbe
000001f0: 7e64 2cbc 1b68 9bbe dade 6ebd 8a3a 00bf
00000200: 61d4 febe 3d4f 47be 3316 8abe 4606 cfbe
00000210: 53cd 8f3d 88a8 51be e099 d63d 2fe0 95bd
00000220: 5873 3c3d 805d 363e f645 c3be 08ea 06bf
00000230: 8c1f 7bbd 30b6 bd3e 805f 413f ad4d f1bd
00000240: 5f2b d1be 0f6c c93e 7a54 cd3e a1bc bf3e
00000250: b190 1e3e 776a 58be 42ca ab3e 8056 7dbf
00000260: fcdc 17bf 84bb 13be 3e58 5b3f d0d9 f9bb
00000270: 9c80 bd3e 434c bfbe 7a77 b0be 6a1e 493e
00000280: 9478 f03d 9556 0e3f 9e6d 713d 483f 863e
00000290: ecf2 84be aacb 423e 4f29 acbd ab49 a43e
000002a0: 2687 8d3e cea5 ed3d 2b16 e5ba 12ef 323f
000002b0: 78d1 b13e 5fc5 533e 1c6c 183e 1f01 be3e
000002c0: 1676 bf3b a029 e83e 6397 af3c 2a9c a43e
000002d0: fb73 6a3e cb9c ecbe a2e3 aebd 1df2 8dbe
000002e0: 944d 533e 50de 54bf 9d39 09bf 9492 15bf
000002f0: 9c7f dcbd 6307 7f3e 0ea3 52be d51f 203f
00000300: 3670 1a3f 735d 703d 938e 1bbf b46f cd3e
00000310: 89b3 8abe 7ccd 683e e9fb de3e 3d1d 983d
0.3971897 0.139492 -0.057007838 -0.21194527 0.1774322 -0.35184395 -0.38297266 -0.7750323
-0.665124 0.20038442 0.3875788 0.2273138 0.08915302 -0.51690197 0.18195401 0.113763265
0.050419718 -0.039920963 0.1070192 -0.14524712 -0.43083423 -0.8618085 -0.69591355 -0.09199011
-0.47066426 0.23427741 -0.0045184605 0.35332626 -0.12828529 0.1800762 0.30225214 -0.6638108
-0.553218 -0.040162373 0.23757139 -0.2611956 0.06134852 -0.42075196 -0.6438816 0.54811555
-0.36419508 -0.8504501 -0.38416454 0.25056675 0.20443144 0.4751376 0.48881134 -0.061494872
0.28927627 -0.2085292 -0.10607909 1.2265183 0.32920283 0.530687 -0.8889513 0.36173928
-0.26785195 0.5413011 -0.50896627 -0.08888728 0.037221365 -0.30811462 -0.12228754 -0.8546574
0.23096825 -0.017594527 -0.04573275 -0.17626573 0.10697618 0.41153252 -0.20384842 -0.2884205
-0.18185847 -0.22073354 -0.12708355 0.3108286 -0.40009916 -0.026621468 -0.3347643 0.009402617
-0.23196924 -0.20366137 -0.11866338 -0.00065167394 -0.24158853 -0.05176553 -0.35193712 0.27920717
-0.3287909 -0.13874346 -0.28547308 -0.16701134 -0.4470749 0.14869393 -0.19151439 -0.12495356
-0.24813597 -0.013725415 -0.060691174 0.050872725 -0.32813853 -0.96616036 -0.21327862 0.014559293
-0.019048551 0.29303667 0.1852991 -0.1268751 -0.021191495 -0.13563237 0.3176159 0.39296132
0.39670965 -0.1179352 -0.1606676 0.06076478 -0.1668764 -0.15744321 0.41325948 0.20785722
0.20110476 -0.5372954 -0.08117904 -0.43649507 -0.010522006 -0.30352864 -0.058317997 -0.50089324
-0.49771407 -0.19463821 -0.26970062 -0.40434474 0.07021584 -0.20474446 0.10478568 -0.0731815
0.046008438 0.17809105 -0.38139313 -0.52700853 -0.061309382 0.3705306 0.75536346 -0.117823936
-0.40853402 0.39340255 0.40103513 0.374486 0.15484883 -0.21134363 0.33552748 -0.98960114
-0.5932157 -0.14427 0.8568152 -0.007624842 0.37012184 -0.3736287 -0.34466153 0.19640508
0.117417485 0.55600864 0.05894243 0.26220155 -0.25966585 0.19023004 -0.084063165 0.32087454
0.27642173 0.1160389 -0.001747792 0.6989604 0.34730124 0.2068076 0.1488499 0.3711023
0.0058429344 0.45344257 0.021434492 0.32150394 0.22895806 -0.46213374 -0.08539511 -0.2772378
0.20635062 -0.8315172 -0.53603536 -0.58426785 -0.10766527 0.24905162 -0.20570013 0.6254857
0.6032747 0.05868287 -0.60764426 0.40124285 -0.270901 0.22734636 0.43551567 0.07427452

onnx::MatMul_23 f4 [10, 5]
00000000: f6a6 00bd 91d1 eb3e 903d a03e 8589 b73e
00000010: 2476 49c0 9e0e 133f 94f1 5a3e bfbb 563e
00000020: e073 acbd a98e df3d 21aa 223f b8a9 643e
00000030: 64cf 67bd 9d01 39be 6124 a8bd 6363 8f3f
00000040: d809 74bf 97da 36bf 2580 6cbf 868e a33e
00000050: 31f6 923d d18b 88bf da07 9abf 259c b9bf
00000060: 0b2c 953e 4e28 ff3e 84b4 44bf f11e efbe
00000070: 6f6f 82be 871e bb3d 5e70 65bf f557 843f
00000080: 7807 803f 58a4 313f 3199 05bf 4b6b e03e
00000090: 4440 8dbe 99e4 acbe 269f a6bf 5f64 cc3e
000000a0: 3115 243f b38c a2be 9f77 8ebd 97a2 393e
000000b0: 6440 fa3e 918b 3fbe 23f7 193f c48d c43e
000000c0: 3418 123f 09fb 45be
-0.031409226 0.46058324 0.31296968 0.35847107 -3.1478357 0.5744418 0.21381217 0.20970057
-0.08420539 0.10915882 0.63540846 0.22330368 -0.056594267 -0.18067022 -0.08210064 1.1202205
-0.9532752 -0.7142729 -0.92383033 0.31944674 0.071758635 -1.0667669 -1.2033646 -1.4500777
0.29135165 0.49835438 -0.76837945 -0.46703294 -0.25475642 0.09136682 -0.89624584 1.0339342
1.0002279 0.69391394 -0.52186877 0.43831858 -0.27588093 -0.33768156 -1.3017318 0.39920327
0.64094836 -0.3174797 -0.0695641 0.1812843 0.4887725 -0.18705584 0.60142726 0.3838941
0.5706818 -0.19334044

onnx::MatMul_24 f4 [5, 1]
00000000: 1e1d 013f 38fc 6fbf 08d6 60bf 7e7e 94c0
00000010: 4d20 c3bf
0.50435054 -0.9374423 -0.87826586 -4.640441 -1.5244232
