plankton.onnx (onnx, 39749 bytes, 8 tensors)

query.weight f4 [32, 32]
0	0x3f5988fb	0.8497464
1	0x3f390aa8	0.72281885
2	0x3f55aa01	0.8346253
3	0x3f49da00	0.78848267
4	0x3f5b8e17	0.85763687
5	0x3f4598a3	0.7718603
6	0x3f46baa4	0.7762854
7	0x3f32783e	0.69714725
8	0x3f53d5e5	0.8274825
9	0x3f733957	0.9500937
10	0x3f75811d	0.95900136
11	0x3f52d4a5	0.8235572
12	0x3e5db871	0.2165239
13	0x3ebce2dd	0.36891833
14	0x3f08082f	0.5313749
15	0x3eb9aa9e	0.36262983
16	0x3f6296f5	0.8851159
17	0x3f35a4b7	0.7095446
18	0x3f4ab49c	0.7918184
19	0x3f5340e3	0.82520884
20	0x3ef85ca5	0.48508182
21	0x3f0fa5f6	0.5611261
22	0x3f0c8463	0.54889506
23	0x3f2c97af	0.6741895
24	0x3f5676cc	0.8377502
25	0x3f3e66dd	0.74375707
26	0x3f2b28ba	0.6685902
27	0x3f7c313c	0.98512626
28	0x3f366652	0.7124988
29	0x3e41778b	0.18893258
30	0x3ea1c00f	0.31591842
31	0x3e92804c	0.28613508
32	0x3f3fdc92	0.7494594
33	0x3f14d4c5	0.5813716
34	0x3f4629d3	0.7740757
35	0x3f5c263a	0.8599583
36	0x3f7b95e1	0.9827557
37	0x3f49ab7d	0.78777295
38	0x3f5084e4	0.81452775
39	0x3f57b10d	0.84254533
40	0x3f618b35	0.8810304
41	0x3f6c5e35	0.9233125
42	0x3f63ada9	0.8893686
43	0x3ebe1ed2	0.3713289
44	0x3ea13a8c	0.3148998
45	0x3f2e57a4	0.6810248
46	0x3ef5b6d0	0.47991037
47	0x3e688269	0.22705998
48	0x3f206486	0.62653387
49	0x3f1b4be8	0.606627
50	0x3f553e94	0.8329861
51	0x3f63c4f0	0.8897238
52	0x3f7c97d1	0.98669153
53	0x3f5022ea	0.81303275
54	0x3f65bbf7	0.89739937
55	0x3f61a7d9	0.8814674
56	0x3f576f61	0.84154326
57	0x3f73669c	0.95078444
58	0x3f7a4316	0.97758615
59	0x3f724d6e	0.946494
60	0x3f1862c7	0.5952572
61	0x3e2b3b69	0.16721882
62	0x3f2700a5	0.6523536
63	0x3f1dace7	0.61591953
64	0x3f4f4a12	0.809724
65	0x3f82183f	1.0163649
66	0x3f80604b	1.0029386
67	0x3f90735d	1.1285206
68	0x3f848aa5	1.0354811
69	0x3f8cba19	1.0994292
70	0x3f812f7c	1.0092616
71	0x3f7329bf	0.94985574
72	0x3f91c468	1.1388063
73	0x3f9c45e9	1.2208835
74	0x3f803340	1.001564
75	0x3f710961	0.94154936
76	0x3e36b16f	0.17841123
77	0x3f2c3f20	0.6728382
78	0x3f17b247	0.59256405
79	0x3e5e006a	0.21679845
80	0x3f3d80e9	0.74024826
81	0x3f60c57a	0.87801325
82	0x3f8ae2e7	1.0850495
83	0x3f84a9b2	1.0364287
84	0x3f864d5c	1.0492358
85	0x3f9af2fa	1.21054
86	0x3f8faf4d	1.1225373
87	0x3f75c5d3	0.9600498
88	0x3f7626e6	0.96153104
89	0x3f892d19	1.0716888
90	0x3f97a15d	1.1846119
91	0x3f9bf8d4	1.2185311
92	0x3f5cf4ba	0.86310923
93	0x3e31178c	0.17294139
94	0x3f33cee7	0.7023758
95	0x3eeb0d50	0.45908594
96	0x3f42fd70	0.76167965
97	0x3f35d3cb	0.71026295
98	0x3f6fd57c	0.93685126
99	0x3f43fb59	0.765554
100	0x3f47e7a3	0.78087825
101	0x3f47e2b9	0.78080326
102	0x3f589512	0.84602463
103	0x3f060e19	0.5236526
104	0x3f53dc52	0.8275806
105	0x3f861de6	1.0477874
106	0x3f620eeb	0.88304013
107	0x3f4d7d9f	0.8026981
108	0x3eadb4b6	0.33926934
109	0x3f0282e1	0.50980955
110	0x3efd2d14	0.49448454
111	0x3ec5ee76	0.38658494
112	0x3f18737e	0.5955123
113	0x3f4a9a56	0.7914175
114	0x3f343c6f	0.70404714
115	0x3f61d03b	0.8820836
116	0x3f460250	0.7734728
117	0x3f5e434b	0.8682143
118	0x3f2ef30b	0.68339604
119	0x3f625ffa	0.884277
120	0x3f5aa172	0.85402596
121	0x3f4e5cec	0.8061054
122	0x3f9159d8	1.1355543
123	0x3f84aace	1.0364625
124	0x3f495447	0.7864422
125	0x3dfc74e0	0.1232698
126	0x3f05a958	0.52211523
127	0x3e70cf31	0.23516537
128	0x3f0c7df1	0.5487967
129	0x3f012236	0.50442827
130	0x3ed6b436	0.41934365
131	0x3bb7821d	0.0056002275
132	0x3e4700d9	0.19433917
133	0x3bdd5849	0.006754909
134	0x3e3743d0	0.17896962
135	0x3e77b70e	0.24190924
136	0xbe80ce1d	-0.25157252
137	0x3f819b16	1.0125453
138	0x3f37743b	0.7166173
139	0x3f38e33c	0.7222173
140	0xbe8d2327	-0.27565882
141	0xbe0358e4	-0.12826878
142	0x3e59f8c1	0.21286298
143	0x3ddec12a	0.10876687
144	0x3f3b6c22	0.7321187
145	0x3f2b3e38	0.66891813
146	0x3f4bd837	0.7962679
147	0x3ed69027	0.41906855
148	0xbe953e77	-0.2914922
149	0x3c79e613	0.015252608
150	0xbec1d734	-0.378595
151	0x3f066a68	0.52506113
152	0x3e4a2ace	0.19742891
153	0x3f1ae5bc	0.60506797
154	0x3f0ddc46	0.55414236
155	0x3f2a7944	0.66591287
156	0x3f08b473	0.53400344
157	0x3e623278	0.22089565
158	0xbf3c4001	-0.7353516
159	0xbf0d2303	-0.5513155
160	0x3f093268	0.5359254
161	0x3edc1150	0.42981958
162	0x3f545fc1	0.8295861
163	0x3f0f1f16	0.5590681
164	0x3f0edd9f	0.55806917
165	0x3f4ed71a	0.8079697
166	0x3f28bb65	0.6591094
167	0x3f5883c9	0.8457609
168	0x3f0008bf	0.50013345
169	0x3f945c8d	1.1590744
170	0x3f932879	1.1496726
171	0x3f1de634	0.6167939
172	0xbf1f83c5	-0.6231044
173	0x3dabf1a7	0.08395701
174	0x3eaaf60a	0.33390838
175	0x3eba8b5e	0.36434454
176	0x3f2af0bf	0.667736
177	0x3e92c4bb	0.28665718
178	0x3ec3e205	0.38258377
179	0x3f893f40	1.0722427
180	0x3f849a05	1.0359503
181	0xbd6af863	-0.057365786
182	0x3f093f2f	0.53612036
183	0x3f3e8e19	0.74435574
184	0x3f77f50a	0.96858275
185	0x3f922432	1.1417296
186	0x3f6778b7	0.9041857
187	0x3f95274e	1.165262
188	0x3f5b34f4	0.85627675
189	0xbf880a32	-1.0628111
190	0x3e4202ec	0.18946427
191	0xbf026c2a	-0.50946295
192	0x3f6e5618	0.9310012
193	0x3f6440fd	0.89161664
194	0x3f6d52d8	0.92704535
195	0x3f5c4237	0.86038536
196	0x3f5f7355	0.8728536
197	0x3f954143	1.1660541
198	0x3f7e38e8	0.9930558
199	0x3f6fd941	0.9369088
200	0x3fa91ae0	1.3211327
201	0x3f9436cf	1.1579226
202	0x3f9191e0	1.1372643
203	0x3f5da116	0.8657392
204	0x3ed07ea8	0.4072163
205	0x3f1ef339	0.6208988
206	0x3f0e144f	0.5549974
207	0x3eb60bdb	0.3555592
208	0x3f264ef3	0.64964217
209	0x3f5ff7ef	0.8748769
210	0x3f7a41f3	0.9775688
211	0x3f62a9a2	0.8854009
212	0x3f6acd63	0.91719645
213	0x3f5f1386	0.87139165
214	0x3f81b59f	1.0133551
215	0x3f5110d7	0.8166632
216	0x3f5b8ed9	0.85764843
217	0x3f715981	0.942772
218	0x3f83f608	1.0309458
219	0x3f8e4d44	1.111733
220	0x3f6faef0	0.9362631
221	0x3e8c2022	0.27368265
222	0x3f2acf95	0.66722995
223	0x3e7b925e	0.24567553
224	0x3f323f62	0.69627964
225	0x3f2aa5f3	0.6665947
226	0x3f36f47b	0.714668
227	0x3f28f6ee	0.66001785
228	0x3f2ae316	0.66752756
229	0x3f1e11fb	0.61746186
230	0x3f18ad1e	0.59639156
231	0x3f243a88	0.6415181
232	0x3f45f583	0.77327746
233	0x3f60cf55	0.87816364
234	0x3f06f67c	0.52719855
235	0x3eab4fa7	0.33459207
236	0x3f0b74c8	0.5447507
237	0x3edb3296	0.42812032
238	0x3f16e709	0.5894628
239	0x3d4a8a2e	0.049448185
240	0x3f47ec2c	0.78094745
241	0x3f285854	0.6575978
242	0x3f51fae9	0.82023484
243	0x3f28dc28	0.6596093
244	0x3f1461c6	0.5796169
245	0x3ea87f2e	0.3290953
246	0x3ee0db66	0.43917388
247	0x3ef3da3c	0.47627437
248	0x3f4b9707	0.79527324
249	0x3f1948a3	0.5987646
250	0x3f040e41	0.5158425
251	0x3f18209f	0.59424776
252	0x3e4abd61	0.19798805
253	0x3f2713fe	0.6526488
254	0x3f1c21e1	0.60989195
255	0x3ee3e8b4	0.44513476

query.bias f4 [32]
0	0x3f646d65	0.8922942
1	0x3fa3427c	1.2754664
2	0x3fa6f7c4	1.3044362
3	0x3f953b63	1.1658748
4	0x3e426c2c	0.18986577
5	0x3f835bd2	1.0262396
6	0x3f9f1fe4	1.2431607
7	0x3f78e17a	0.9721905
8	0x3f832655	1.0246073
9	0x3f80bc64	1.0057492
10	0x3f5c70b0	0.8610945
11	0x3ef9925a	0.4874447
12	0x3e78dc91	0.2430289
13	0x3f9ee088	1.2412271
14	0x3f962fed	1.1733376
15	0x3f81ba65	1.0135008
16	0x3f8732d5	1.0562388
17	0x3f509c76	0.8148874
18	0x3f638e38	0.88888884
19	0x3f7373f6	0.9509882
20	0x3f4d2950	0.8014116
21	0x3f925734	1.1432862
22	0x3f8b7a72	1.0896742
23	0x3f584574	0.8448098
24	0x3f93f1a9	1.1558124
25	0x3f6da662	0.92832005
26	0x3f077643	0.5291483
27	0x3f5f5bca	0.87249434
28	0x3f9034d9	1.1266128
29	0x3f6be875	0.92151576
30	0x3f2fa12f	0.6860532
31	0x3f11bc60	0.5692806

key.weight f4 [32, 32]
0	0x3f0c4176	0.54787385
1	0x3f271572	0.652671
2	0x3f2252cf	0.63407606
3	0x3f27aa01	0.6549378
4	0x3f4ae617	0.7925734
5	0xbd3c35ac	-0.045949623
6	0x3d560223	0.05224813
7	0x3f1c1d19	0.609819
8	0x3dcd9989	0.1003905
9	0x3efa0015	0.48828188
10	0x3e88ee35	0.26744238
11	0x3efda890	0.49542665
12	0x3ea37e5f	0.3193235
13	0x3e13b8d0	0.14425969
14	0x3f0ea8ef	0.5572652
15	0x3ed4d9f0	0.41572523
16	0x3f398e48	0.7248273
17	0x3f1f2bd9	0.6217628
18	0x3f16ce86	0.5890888
19	0x3f142d45	0.57881576
20	0x3e1be19f	0.15222786
21	0x3d93164c	0.07181987
22	0x3e793105	0.24335106
23	0x3f2591ac	0.646754
24	0x3f2b0360	0.66802025
25	0x3f419d0f	0.7563028
26	0xbd83a45d	-0.06427834
27	0x3f2b2833	0.66858214
28	0x3f08a07b	0.53369874
29	0x3e04ffd9	0.12988223
30	0x3f2bab0a	0.6705786
31	0x3f008743	0.50206393
32	0x3f181def	0.59420675
33	0x3eeb3cb0	0.45944738
34	0x3eff92ba	0.4991663
35	0x3f36c6b0	0.71396923
36	0x3f03b3ef	0.5144643
37	0x3f3eb277	0.74491066
38	0x3f00d711	0.50328165
39	0x3f226e7d	0.6344984
40	0x3f13143b	0.57452744
41	0x3f35f83a	0.7108189
42	0x3f117946	0.56825674
43	0x3f2ccebc	0.6750295
44	0x3eee33f2	0.46524006
45	0x3f08940c	0.533509
46	0x3eae0f1c	0.33995903
47	0x3dfae626	0.122509286
48	0x3f0ec0a8	0.5576272
49	0x3edd0dda	0.4317463
50	0x3e80c1b7	0.25147793
51	0x3f115237	0.56766075
52	0x3f3b102f	0.7307157
53	0x3e81fa17	0.25386116
54	0x3f29eb53	0.663747
55	0x3f5523f1	0.8325797
56	0x3f348009	0.70507866
57	0x3f47fc18	0.7811904
58	0x3e93bc9d	0.28854838
59	0x3f32d6e3	0.6985914
60	0x3e399945	0.18124874
61	0x3f0d583a	0.5521275
62	0x3f455cc9	0.77094704
63	0x3ed9a37e	0.42507547
64	0x3f1a16dd	0.60191137
65	0x3f2b0a4a	0.66812575
66	0x3f3773e0	0.71661186
67	0x3f2dae04	0.6784365
68	0x3f0e619c	0.5561769
69	0x3f481b1e	0.7816638
70	0x3f2ae320	0.66752815
71	0x3f4a3ed6	0.7900213
72	0x3f408633	0.7520477
73	0x3f477738	0.7791629
74	0x3f706aef	0.9391317
75	0x3f183bb9	0.5946613
76	0x3ea6d87f	0.32587048
77	0x3f1dd20f	0.6164865
78	0x3f166d96	0.58760965
79	0x3e7b081c	0.24514812
80	0x3f347faf	0.7050733
81	0x3f0a7ed5	0.5409978
82	0x3f281513	0.65657157
83	0x3f3d4f8d	0.7394951
84	0x3f23ee41	0.6403542
85	0x3f801bb4	1.0008454
86	0x3f24d2fe	0.6438445
87	0x3f341bd5	0.7035497
88	0x3f26c746	0.6514782
89	0x3f60e7e9	0.87853867
90	0x3f41819e	0.75588405
91	0x3f457a10	0.7713938
92	0x3f2d1b5c	0.6761987
93	0x3e5f3b03	0.21799855
94	0x3f423fa2	0.75878346
95	0x3f2c0aa8	0.6720376
96	0x3f609f79	0.87743336
97	0x3effa33a	0.4992922
98	0x3f25cb78	0.64763594
99	0x3f33278a	0.69982207
100	0x3f2e1735	0.6800416
101	0x3ed3b8ac	0.4135183
102	0xbe7015fe	-0.2344589
103	0x3f16c5c1	0.588955
104	0xbe6bd056	-0.23028693
105	0x3f292279	0.66068226
106	0x3f6b529a	0.91922915
107	0x3f1042e8	0.5635209
108	0x3ee082fd	0.43849936
109	0x3f374195	0.71584445
110	0x3eaf7d82	0.34275442
111	0x3efc5b9e	0.49288648
112	0x3f4c0d41	0.79707724
113	0x3edc6f7c	0.43053806
114	0x3ee416ef	0.44548747
115	0x3f256d02	0.6461946
116	0x3f49f642	0.78891385
117	0xbe263031	-0.16229321
118	0x3f151646	0.5823711
119	0x3f4fee47	0.8122296
120	0x3f76b553	0.9637043
121	0x3f76b2ed	0.9636677
122	0xbe833fe0	-0.2563467
123	0x3f42a32a	0.7603022
124	0x3f43b908	0.7645421
125	0x3ed9a305	0.42507187
126	0x3f126786	0.57189214
127	0x3f2c838a	0.6738821
128	0x3f182786	0.5943531
129	0x3df5114e	0.11966191
130	0x3e4ac7c5	0.19802769
131	0x3efa55fe	0.48893732
132	0x3eac47c2	0.33648497
133	0x3dbfe156	0.09369151
134	0xbe652c7b	-0.22380249
135	0x3f0bf334	0.54667974
136	0xbdbe7cd1	-0.093011506
137	0x3f350b9b	0.70720834
138	0x3eeb669d	0.45976725
139	0x3f19dc26	0.60101545
140	0x3e7e548c	0.2483694
141	0x3db868d4	0.090043694
142	0x3f1a78f5	0.60340816
143	0x3ee7d5c2	0.45280272
144	0x3f5ea8d3	0.86976355
145	0x3f4458e8	0.7669816
146	0x3d46c7a0	0.04853022
147	0x3e2e0b53	0.16996507
148	0x3e48323a	0.1955041
149	0x3e6c7fd7	0.23095642
150	0xbe67c4c4	-0.22633654
151	0x3ec3c6f4	0.38237727
152	0x3f2c539d	0.67315084
153	0x3ddb751d	0.10715697
154	0xbd9a618a	-0.07538135
155	0x3e99af2d	0.3001646
156	0x3eaf6355	0.34255472
157	0x3eceff39	0.40429094
158	0x3eff9e04	0.49925244
159	0x3e9259b3	0.2858406
160	0xbf000dc2	-0.5002099
161	0x3e93a678	0.28837943
162	0x3f36d051	0.71411616
163	0x3ebcd440	0.36880684
164	0x3ecf8c1c	0.40536582
165	0x3f236c37	0.63837
166	0x3f3d213a	0.73878825
167	0x3f186b26	0.59538496
168	0x3f410962	0.7540494
169	0x3f0e267b	0.55527467
170	0x3f907107	1.1284493
171	0x3e6d9c24	0.23204094
172	0xbd827206	-0.063694045
173	0xbefda126	-0.4953701
174	0x3ebee411	0.37283376
175	0x3eb71eb2	0.35765606
176	0xbf0ae684	-0.5425799
177	0x3f620d8e	0.8830193
178	0x3ea8e20d	0.32984963
179	0x3f02d771	0.5110999
180	0x3f81beb8	1.0136328
181	0x3dd947f1	0.10609425
182	0x3f44578f	0.76696104
183	0x3ec2bb44	0.38033497
184	0x3f77345a	0.9656426
185	0x3f8352bc	1.0259624
186	0x3ecbfec4	0.39842808
187	0xbde806a9	-0.11329395
188	0xbdcbcf8e	-0.09951697
189	0xbdff8329	-0.12476189
190	0x3f4a5e05	0.7904971
191	0xbe422533	-0.18959503
192	0x3f3a53a8	0.727839
193	0x3f444cdf	0.76679796
194	0x3f4eee6d	0.8083256
195	0x3f539c70	0.8266058
196	0x3f1b60a8	0.6069436
197	0x3ecb8fb8	0.39758086
198	0x3f3f5f65	0.74754936
199	0x3f353d94	0.70797086
200	0x3f566f80	0.83763885
201	0x3f48fa05	0.785065
202	0x3f7a4fab	0.97777814
203	0x3f447e38	0.76755095
204	0x3f2244cf	0.63386244
205	0x3f2ac1b9	0.6670185
206	0x3f1b5c31	0.6068755
207	0x3ee557dd	0.44793597
208	0x3f3afc3f	0.73041147
209	0x3f1bbe39	0.6083713
210	0x3f3d0696	0.73838174
211	0x3f15b31e	0.58476436
212	0x3f0995dd	0.537443
213	0x3f22bc55	0.6356862
214	0x3f2a87ea	0.6661364
215	0x3f2d344c	0.67657924
216	0x3f07f342	0.53105557
217	0x3f609dd7	0.87740844
218	0x3f0da19d	0.5532473
219	0x3f6a7127	0.91578907
220	0x3f4087cc	0.7520721
221	0x3f1880bd	0.5957144
222	0x3f0f17d1	0.55895716
223	0x3eb6b1b6	0.35682458
224	0x3ea6d3e7	0.32583544
225	0x3f00d88f	0.5033044
226	0x3ea2fd9b	0.3183411
227	0x3f040ab2	0.5157882
228	0x3eed2456	0.46316785
229	0x3eb674aa	0.35635883
230	0x3df51849	0.11967523
231	0x3ed94438	0.4243486
232	0x3f1fe6cc	0.62461543
233	0x3f1e4766	0.61827695
234	0x3ef866df	0.48515984
235	0x3ebce134	0.36890566
236	0x3ed988a4	0.4248706
237	0x3e38fd9c	0.18065494
238	0x3dc89206	0.09793477
239	0x3e8fb203	0.280655
240	0x3f0b87b2	0.5450393
241	0x3ee9038c	0.4551052
242	0x3f2c2357	0.67241424
243	0x3ea28e38	0.3174913
244	0x3ed007b0	0.40630865
245	0xbd180ef1	-0.037123624
246	0x3eee6c2c	0.46566904
247	0x3f11c8c9	0.56947
248	0x3f20c2fc	0.6279752
249	0x3ef9f8d5	0.48822656
250	0x3eb6c045	0.35693565
251	0x3f00fa54	0.5038197
252	0x3f051568	0.5198579
253	0xbdcccc8e	-0.09999953
254	0x3f0fc3a5	0.56157905
255	0xbce7fd9e	-0.028319176

key.bias f4 [32]
0	0x3f1bbfa4	0.60839295
1	0x3f2fafe2	0.6862775
2	0x3f8b1eb4	1.0868745
3	0x3f322588	0.6958852
4	0x3e11cf92	0.14239338
5	0x3eba7b51	0.36422208
6	0x3f86544f	1.0494479
7	0x3f3dea63	0.7418577
8	0x3f283ec4	0.6572077
9	0x3f3ec8a5	0.7452491
10	0x3f4c2d1b	0.79756325
11	0x3e1abb34	0.15110475
12	0x3ec6af15	0.38805452
13	0x3f45ab30	0.77214336
14	0x3f60c4cb	0.8780028
15	0x3f55dd2d	0.8354061
16	0x3f124901	0.57142645
17	0x3f41ce3a	0.757053
18	0x3f10e642	0.56601346
19	0x3f4e4eff	0.8058929
20	0x3efeabce	0.49740452
21	0x3f622b58	0.8834739
22	0x3f28e9c9	0.6598173
23	0x3f1806a9	0.5938516
24	0x3f5cde79	0.86276966
25	0x3f395ea5	0.7241004
26	0x3ca84ae6	0.020543527
27	0x3f000102	0.5000154
28	0x3f2e5e49	0.6811262
29	0x3f2bb5b9	0.6707416
30	0x3f00892d	0.50209314
31	0x3f27a283	0.6548235

value.weight f4 [32, 32]
0	0xbe78b6da	-0.24288502
1	0xbe641da7	-0.22276936
2	0xbe3f04f7	-0.18654238
3	0xbe12e71b	-0.14345972
4	0x3c86f89b	0.016475966
5	0x3e10e8c6	0.14151296
6	0xbdb04e16	-0.08608644
7	0xbe490df5	-0.1963423
8	0x3baa9455	0.005205671
9	0x3e484ff1	0.19561745
10	0xbde74667	-0.11292725
11	0xbd87f8cd	-0.06639252
12	0xbda1b6cb	-0.07896193
13	0xbdd33b71	-0.10314072
14	0xbefe9ddd	-0.49729815
15	0xbe6df639	-0.23238458
16	0xbead1d7c	-0.33811557
17	0xbec47455	-0.38370004
18	0xbdb69fdc	-0.089172095
19	0x3c869db4	0.01643262
20	0x3e9701ef	0.29493663
21	0xbdd4dba7	-0.10393458
22	0x3dbdbc91	0.09264482
23	0xbb9ad4c9	-0.004725073
24	0xbe31927e	-0.17341039
25	0xbea80886	-0.32819003
26	0x3d0060af	0.031342205
27	0x3d62b2d5	0.05534633
28	0xbcb4e2e4	-0.022080846
29	0x3dca7d07	0.09887128
30	0xbe83a0c8	-0.25708604
31	0xbe0e066d	-0.13869639
32	0x3e0194a3	0.12654357
33	0x3de2912e	0.11062847
34	0x3c14e38b	0.009087454
35	0xbd203e98	-0.039122194
36	0xbe52e420	-0.20594835
37	0x3e586744	0.21133143
38	0x3d98e584	0.07465652
39	0x3e9f9afe	0.31172937
40	0x3d2b6ee2	0.041853793
41	0xbe53b842	-0.20675758
42	0x3e1a6453	0.15077333
43	0xbba265ac	-0.004955968
44	0x3d971cbd	0.07378528
45	0x3e72282a	0.23648134
46	0xbc992a55	-0.018696943
47	0xbe345223	-0.17609458
48	0x3dd4557f	0.103678696
49	0x3d444636	0.04791852
50	0xbd184641	-0.037176374
51	0xbddf13f3	-0.10892477
52	0x3dbead49	0.09310395
53	0x3c1d1947	0.009588546
54	0x3e643848	0.22287095
55	0x3e90f278	0.2830999
56	0x3ee7be00	0.45262146
57	0x3f15c8ee	0.5850972
58	0xbd39c613	-0.045354914
59	0xbe9905de	-0.2988729
60	0xbecec50c	-0.4038471
61	0xbb41255a	-0.0029471726
62	0x3ed0633e	0.40700716
63	0x3e0c84c5	0.13722523
64	0x3e42fd9e	0.1904206
65	0x3d90517e	0.070467934
66	0x3dac42d4	0.08411184
67	0x3cbb5007	0.022865308
68	0x3d66d690	0.056356966
69	0x3e1a4c59	0.15068187
70	0x3d32fc32	0.043697543
71	0x3ec10962	0.3770247
72	0xbe22510b	-0.15851228
73	0x3c52f5fc	0.01287603
74	0x3f1ca3d9	0.6118751
75	0x3e91ae23	0.28453168
76	0x3cf4e0ab	0.029892286
77	0x3eba749a	0.36417085
78	0x3f0f3101	0.5593415
79	0x3d571bcb	0.05251674
80	0x3e89edc0	0.269392
81	0x3dd3bfd1	0.103393205
82	0x3cd3d844	0.02585996
83	0x3bec4c10	0.007211216
84	0x3d8d85f8	0.06910318
85	0x3ec740c0	0.38916588
86	0x3ed49e25	0.41526905
87	0x3ec7c750	0.3901925
88	0x3f4a5c74	0.7904732
89	0x3f4563ad	0.7710522
90	0xbd0e996a	-0.034814276
91	0xbe93ef57	-0.2889354
92	0xbead2e1b	-0.33824238
93	0xbed4dc09	-0.41574124
94	0x3e72d70f	0.23714851
95	0x3da23592	0.07920374
96	0xbe8c94bc	-0.27457225
97	0xbd401eb7	-0.046904292
98	0xbe91a81c	-0.2844857
99	0x3c2609eb	0.010134201
100	0x3de8dfb7	0.11370795
101	0xbdf7ce80	-0.120999336
102	0xbe9601d1	-0.2929826
103	0xbe09a4f9	-0.13441838
104	0x3caca773	0.02107594
105	0x3e6fcb6d	0.23417445
106	0xbeca1ebe	-0.3947658
107	0xbb0c82c4	-0.0021440247
108	0xbe85942a	-0.26089603
109	0xbeb9df93	-0.36303386
110	0xbe1bfbb2	-0.15232733
111	0xbe971de8	-0.29515004
112	0xbeb97d2c	-0.3622831
113	0xbdf956e6	-0.12174778
114	0xbde87c3f	-0.11351823
115	0xbe3cdab5	-0.18442805
116	0xbdc13db7	-0.09435599
117	0xbe92c3d0	-0.28665018
118	0x3d82ab54	0.063803345
119	0xbded873b	-0.11598059
120	0xbec6155d	-0.38688174
121	0xbecc3bed	-0.3988947
122	0x3d59e44b	0.053196233
123	0x3df36573	0.11884584
124	0x3d99d21b	0.075107776
125	0x3e89dce9	0.26926354
126	0xbd3a2484	-0.04544498
127	0xbe269374	-0.16267186
128	0x3e827ef8	0.25487494
129	0x3dc0bb15	0.09410683
130	0x3dabd2dc	0.083898276
131	0xbda0aac8	-0.07845074
132	0x3d479102	0.048722275
133	0x3e6f4866	0.23367462
134	0xbd9ca2a6	-0.0764821
135	0x3e113fc6	0.14184484
136	0x3dc211af	0.09476029
137	0x3d1ae9ee	0.03782075
138	0x3e30e3a5	0.1727434
139	0x3e490cd9	0.19633807
140	0xbd201999	-0.03908691
141	0xbcecbe33	-0.028899288
142	0x3e713255	0.23554356
143	0x3e650053	0.22363405
144	0x3ec81a35	0.39082494
145	0x3eaa8870	0.3330722
146	0x3e38b314	0.18037063
147	0x3d7bef32	0.06150741
148	0x3e444de1	0.19170333
149	0x3dc27343	0.09494641
150	0xbe1cacc0	-0.15300274
151	0x3dde3af0	0.10851085
152	0x3df58157	0.1198756
153	0x3da80ada	0.08205195
154	0x3e0a093c	0.13480085
155	0x3db6e904	0.08931163
156	0x3df7e09c	0.12103388
157	0x3ddce2e2	0.10785462
158	0x3cb354bf	0.021890996
159	0x3dcb21c9	0.099185534
160	0xbdaff7fc	-0.08592221
161	0xbc4b8854	-0.01242264
162	0x3e715412	0.23567227
163	0x3de27f97	0.11059492
164	0xbe3ba31a	-0.18323937
165	0x3e5a0563	0.21291117
166	0x3db9dcb2	0.090752974
167	0x3e1ae9d1	0.15128256
168	0xbd8b1c35	-0.067924894
169	0xbda3a454	-0.079903275
170	0x3edcf479	0.43155268
171	0x3d03b7e2	0.032157786
172	0xbdd8d7dd	-0.10588048
173	0xbe6c1475	-0.23054679
174	0x3dc8c983	0.0980406
175	0x3e01f7c1	0.12692167
176	0xbd9e9722	-0.0774367
177	0x3e947e04	0.29002392
178	0x3ca78002	0.020446781
179	0x3e4a6374	0.19764501
180	0x3d3e2547	0.04642227
181	0xbd57bfe5	-0.05267324
182	0x3e55da38	0.20884025
183	0x3d2f7c08	0.042842895
184	0x3f19b6d3	0.6004459
185	0x3f37f533	0.7185852
186	0xbc8b3953	-0.016995108
187	0xbe63e72d	-0.22256155
188	0xbdbd9ccc	-0.09258422
189	0xbe3d93a5	-0.18513353
190	0x3e726aa1	0.23673488
191	0xbe288696	-0.1645759
192	0x3e9e30d9	0.30896643
193	0x3e9e2fff	0.30895993
194	0x3e377033	0.17913894
195	0x3e29a684	0.16567427
196	0x3dd6f3cc	0.10495719
197	0x3d2e40e1	0.042542342
198	0x3e95f3ff	0.29287717
199	0x3e9d8d8d	0.30772057
200	0xbce613d7	-0.028085632
201	0x3dd2edef	0.102992885
202	0x3f09331d	0.5359362
203	0x3e84ecd8	0.25961947
204	0x3eb5fc60	0.3554411
205	0x3f20acab	0.6276347
206	0x3ea522f1	0.3225322
207	0x3ea02661	0.3127928
208	0x3f0a585b	0.5404107
209	0x3f26c21d	0.65139943
210	0x3ced621d	0.028977448
211	0xbe17d4c7	-0.14827262
212	0xbeab7afe	-0.33492273
213	0x3c24b91d	0.0100539
214	0x3eaa6fcf	0.33288428
215	0x3e88d0c3	0.26721773
216	0x3f13fcef	0.5780782
217	0x3f273a57	0.65323395
218	0xbdbf1318	-0.09329814
219	0xbdffdf0e	-0.12493716
220	0xbe7bf9a0	-0.24606943
221	0x3b02f959	0.0019985049
222	0x3e83bcbb	0.25729927
223	0xbc9bd083	-0.019020325
224	0x3e3a53eb	0.18196075
225	0x3e9e6d32	0.30942684
226	0x3dac79a5	0.08421639
227	0x3e03bb68	0.12864459
228	0x3d36f45a	0.044666626
229	0x3ae9d32b	0.0017839422
230	0xbe13fe34	-0.1445244
231	0xbe8f718f	-0.28016326
232	0x3c52c1e3	0.012863609
233	0xbe1afec3	-0.15136246
234	0xbd527e56	-0.051390015
235	0xbe2c64ae	-0.16835281
236	0xbe0a8faf	-0.13531373
237	0xbd3da6cb	-0.046301644
238	0x3d4b31ad	0.04960792
239	0xbe277f3d	-0.16357131
240	0x3ef73183	0.48279962
241	0x3e8e38b5	0.2777764
242	0x3ee592bf	0.4483852
243	0x3e55dd2e	0.20885155
244	0xbe4bc34e	-0.19898722
245	0xbe42ea0c	-0.19034594
246	0xbe38bb9d	-0.18040319
247	0xbe8debfb	-0.277191
248	0x3e12f3eb	0.1435086
249	0x3dddcac1	0.10829688
250	0x3d4fe9fe	0.05076026
251	0xbda251a2	-0.079257265
252	0x3d3c8c00	0.046031952
253	0xbaca3e20	-0.0015429892
254	0x3eed1346	0.46303767
255	0x3c4e8011	0.012603776

value.bias f4 [32]
0	0xbedda9d7	-0.4329364
1	0x3e9a0a0c	0.3008579
2	0xbeef04f0	-0.46683455
3	0x3efae34f	0.49001548
4	0x3ecb010a	0.3964923
5	0x3e42c92e	0.19022056
6	0xbeee1741	-0.46502116
7	0x3ed2f241	0.4120045
8	0xbef459a9	-0.47724655
9	0x3ec98018	0.3935554
10	0x3edff501	0.4374161
11	0xbecab5bf	-0.39591786
12	0x3ea82124	0.32837784
13	0xbebd64b4	-0.36990893
14	0x3e74bc15	0.23899873
15	0x3ed33f4a	0.41259223
16	0xbeb93da7	-0.3617985
17	0xbebd1445	-0.36929527
18	0x3ec784dd	0.38968554
19	0xbe952d30	-0.29136038
20	0x3e82470b	0.25444826
21	0x3ec1a370	0.37820005
22	0xbecf211d	-0.4045495
23	0x3ed6cca9	0.41953018
24	0x3ec44616	0.3833472
25	0xbef2de87	-0.474354
26	0xbf0736f9	-0.52818257
27	0xbeae5082	-0.34045798
28	0x3e960f57	0.29308578
29	0xbe946125	-0.28980365
30	0xbea60b6a	-0.32430583
31	0x3e8e6981	0.27814868

fc.weight f4 [32, 32]
0	0x3e86341f	0.2621164
1	0xbe194963	-0.14969401
2	0x3e68944e	0.22712824
3	0xbeaa510a	-0.33264953
4	0xbdb26124	-0.08709934
5	0xbe430a6b	-0.19046943
6	0x3ef605f1	0.48051408
7	0xbe1760da	-0.1478304
8	0x3ece1ba1	0.40255454
9	0xbe9a3be7	-0.30123827
10	0xbe1ccb29	-0.15311874
11	0x3e71f7eb	0.2362973
12	0xbdf93465	-0.121681966
13	0x3ebff353	0.3749033
14	0xbe36e3d4	-0.17860347
15	0xbed8f7c2	-0.42376524
16	0x3ebf512f	0.37366626
17	0x3db36958	0.08760327
18	0xbe8eaded	-0.2786707
19	0x3caab005	0.020835886
20	0xbd98f01b	-0.074676715
21	0xbeba42a0	-0.36378956
22	0x3e856daa	0.2606023
23	0xbe8c8dd7	-0.27451965
24	0xbe02341f	-0.12715195
25	0x3eb13576	0.346111
26	0x3d8ffdd4	0.07030836
27	0x3ea197f3	0.3156124
28	0xbd0104df	-0.031498786
29	0x3ee7db27	0.45284387
30	0x3cf37cbd	0.029722566
31	0xbd09b062	-0.033615477
32	0x3ddd357d	0.10801218
33	0xbe7428de	-0.23843715
34	0x3dbed2bc	0.09317538
35	0xbe9996f0	-0.2999797
36	0xbe11908d	-0.14215298
37	0xbe03176f	-0.12801908
38	0x3dcefac6	0.10106425
39	0xbe0a188f	-0.13485931
40	0x3e200c1c	0.1562962
41	0x3d887f77	0.06664937
42	0xbe3ad67f	-0.18245886
43	0x3de79b57	0.113089256
44	0xbe93ef51	-0.2889352
45	0x3d8ae675	0.067822374
46	0xbe012f82	-0.12615779
47	0xbec137be	-0.3773784
48	0x3e76036f	0.24024747
49	0x3e1504b7	0.1455258
50	0xbebabc97	-0.36472008
51	0x3dbca839	0.092117734
52	0xbc967e50	-0.018370777
53	0xbe83e7b9	-0.25762728
54	0x3e9d3273	0.30702552
55	0xbe0531c8	-0.13007271
56	0x3e4bd492	0.19905308
57	0x3e8c1edf	0.27367303
58	0x3e527794	0.20553428
59	0x3e87ca1f	0.26521394
60	0x3d14fbde	0.03637301
61	0x3e7d0fd5	0.2471307
62	0x3e8167bd	0.2527446
63	0xbe11d8d0	-0.14242864
64	0x3e6ec460	0.23317099
65	0xbe96b9e9	-0.29438713
66	0xbd1685d4	-0.036748722
67	0xbe117e28	-0.14208281
68	0xbe9491fa	-0.2901762
69	0xbe13f1a4	-0.14447647
70	0x3d2d4a17	0.042306986
71	0xbe12a05e	-0.14318988
72	0x3ea85472	0.32876927
73	0xbdd8afe3	-0.10580423
74	0xbda3aa13	-0.079914235
75	0x3e92e83a	0.286928
76	0xbe48c7bf	-0.19607447
77	0x3dab2dbc	0.083583325
78	0x3c03d901	0.008047343
79	0xbd43ca3b	-0.047800284
80	0x3e768349	0.24073519
81	0x3de7ce08	0.11318594
82	0xbe585226	-0.21125087
83	0x3decd5c6	0.115642115
84	0xbe9a6c2a	-0.30160648
85	0xbc5b304c	-0.013378214
86	0x3dfceccc	0.12349853
87	0x3daa554d	0.08317051
88	0x3e305f23	0.17223792
89	0x3e320e59	0.17388286
90	0x3d2163f9	0.039401982
91	0x3e003837	0.12521444
92	0x3e6c4f0f	0.23077033
93	0x3ec0f3da	0.37686044
94	0x3e0f00c3	0.13965134
95	0xbe07ac72	-0.13249376
96	0x3e24f689	0.1610967
97	0xbe9f88b4	-0.31158984
98	0xbc502ffe	-0.012706755
99	0xbe3f84a6	-0.18702945
100	0x3d177548	0.036977082
101	0xbe525cbb	-0.20543186
102	0xbe43d400	-0.1912384
103	0xbd6c77b1	-0.057731334
104	0x3d334d99	0.043775175
105	0xbe1710ae	-0.14752457
106	0xbe5960af	-0.21228288
107	0x3d0b09ac	0.03394477
108	0xbe3eea0a	-0.18643966
109	0x3cfb8970	0.030705184
110	0xbeaa7398	-0.33291316
111	0xbe25cb84	-0.16190916
112	0x3e7a572d	0.24447317
113	0x3e791483	0.24324231
114	0xbd1fcd74	-0.039014295
115	0x3c0946db	0.00837871
116	0xbeae891c	-0.3408898
117	0xbd5ede82	-0.05441142
118	0x3d32371f	0.0435096
119	0xbd360e47	-0.04444721
120	0x3d4f8540	0.050664186
121	0xbdc69a89	-0.09697444
122	0x3e956934	0.29181826
123	0x3e1af8a4	0.15133911
124	0x3c915b31	0.017743679
125	0x3e86f848	0.263613
126	0x3e7168a7	0.23575078
127	0xbd89c9ec	-0.06727967
128	0x3e59819e	0.21240851
129	0xbd2c2564	-0.042027846
130	0x3be9e66b	0.0071380637
131	0xbe84765d	-0.25871554
132	0xbea129ef	-0.31477305
133	0xbb2c277e	-0.0026268656
134	0xbe1c2aa2	-0.15250638
135	0xbddc69f0	-0.107623935
136	0xbd26b237	-0.040697303
137	0xbdd61ef1	-0.1045512
138	0xbe5da247	-0.21643935
139	0xbcec66ee	-0.028857674
140	0xbe2e3f36	-0.170163
141	0x3e1f27ee	0.15542576
142	0xbeb45e45	-0.35228172
143	0xbddbdf36	-0.107359335
144	0x3e26d74a	0.16293064
145	0x3e848577	0.25883076
146	0x3d461c4e	0.048366837
147	0x3d0e5cac	0.034756348
148	0xbdc9dab8	-0.098561704
149	0x3d226365	0.03964557
150	0x3e6c1f86	0.230589
151	0xbe7557a0	-0.23959208
152	0x3c6619da	0.014044249
153	0x3d9476e5	0.0724924
154	0x3da690d6	0.08133094
155	0x3e229b28	0.158795
156	0xbcb56028	-0.022140577
157	0xbd453bc3	-0.048152696
158	0xbc3d6efa	-0.011562103
159	0xbe1297ce	-0.14315721
160	0x3e099996	0.13437495
161	0x3cefcd87	0.029272808
162	0x3ddf37af	0.10899293
163	0xbe1906fb	-0.14944069
164	0xbea05ff1	-0.31323197
165	0x3dad0467	0.08448105
166	0xbde2d513	-0.11075797
167	0xbe9cf655	-0.30656686
168	0x3e863fe2	0.26220614
169	0xbea6b667	-0.32561037
170	0xbe7d4ad9	-0.24735583
171	0x3e82b30b	0.25527224
172	0xbe394dad	-0.18096037
173	0x3e8c4f45	0.27404228
174	0xbcaa8f6c	-0.020820342
175	0xbd9bf5a3	-0.07615211
176	0xbb5a82eb	-0.0033342193
177	0x3d8567df	0.065139525
178	0x3a297d69	0.0006465526
179	0x3e1810f7	0.14850222
180	0x3d1c2d01	0.038128857
181	0x3e0530e3	0.1300693
182	0x3e5ea853	0.21743898
183	0xbe978425	-0.29593006
184	0xbceb7f66	-0.028747272
185	0x3d3e6ef0	0.046492517
186	0x3ded72ab	0.11594137
187	0x3d4ed506	0.050496124
188	0xbe8e4641	-0.27787974
189	0xbdc39d94	-0.0955154
190	0x3ea260ba	0.31714422
191	0xbdba0338	-0.09082645
192	0x3dbe4844	0.09291127
193	0xbe23d2d7	-0.15998398
194	0x3ebab4ce	0.36466068
195	0xbd0df1d2	-0.034654446
196	0xbda2ae64	-0.079434186
197	0xbe6849e6	-0.2268444
198	0x3c665846	0.014059132
199	0xbeb0ca18	-0.34529185
200	0x3e601cf4	0.21886045
201	0xbe84a277	-0.259052
202	0xbdcab3f6	-0.09897606
203	0x3e4d36d3	0.20040445
204	0xbe80e3f2	-0.25173908
205	0x3e6a8aef	0.22904561
206	0xbe12d1cb	-0.14337842
207	0x3a831eb2	0.0010003655
208	0x3d3ebc74	0.04656644
209	0x3eb0488a	0.34430343
210	0xbd916c50	-0.07100737
211	0x3df27ba1	0.118399866
212	0x3cf7028b	0.03015258
213	0xbd7e08ad	-0.062019993
214	0x3e8078e4	0.25092232
215	0xbe9d5b84	-0.30733883
216	0xbeb8d32d	-0.36098614
217	0xbc646e86	-0.0139423665
218	0x3e16c750	0.14724469
219	0x3ea00fa4	0.31261933
220	0xbf00ff8f	-0.5038995
221	0x3e08ead1	0.13370825
222	0x3bba0991	0.00567741
223	0xbe792a1e	-0.24332473
224	0x3e8958f1	0.2682567
225	0xbe877374	-0.2645527
226	0x3eedf735	0.46477666
227	0xbe56ca05	-0.20975502
228	0xbe8f67e6	-0.28008956
229	0xbe3a95bd	-0.18221183
230	0x3f0cba87	0.5497212
231	0xbea9c549	-0.3315833
232	0x3e3a9d7b	0.18224137
233	0xbec85d7b	-0.3913382
234	0xbdc36be8	-0.09542066
235	0x3e31462d	0.17311926
236	0xbd90bcaa	-0.07067235
237	0x3eb0fc43	0.3456746
238	0xbdc96beb	-0.09835037
239	0xbe2d32e3	-0.16913943
240	0x3deb63f0	0.11493671
241	0x3d9a0bf5	0.07521812
242	0xbe8734f5	-0.2640759
243	0x3eac5e93	0.33665904
244	0xbe8455e8	-0.2584679
245	0xbe799d10	-0.24376321
246	0x3e16101c	0.14654583
247	0xbe8e3166	-0.27772063
248	0xbf04f12a	-0.5193049
249	0x3eb689ff	0.35652158
250	0x3dd7f0ed	0.10544
251	0x3e040f32	0.12896422
252	0xbedc777c	-0.4305991
253	0xbce961e1	-0.028489055
254	0x3e99caac	0.3003744
255	0xbea1acd8	-0.31577182

fc.bias f4 [32]
0	0xbe856fe3	-0.26061925
1	0xbea0d86f	-0.31415126
2	0xbe9912e4	-0.29897225
3	0xbe3a0671	-0.1816652
4	0xbe8c39f6	-0.2738797
5	0xbe43d3f0	-0.19123816
6	0xbcf6c6ea	-0.030124146
7	0xbca0ec51	-0.019643934
8	0xbe912ee2	-0.2835608
9	0xbe2e2891	-0.17007662
10	0xbd99bab9	-0.07506318
11	0xbe95b38a	-0.2923854
12	0xbea8125d	-0.3282651
13	0xbdb3066a	-0.08741458
14	0xbd035069	-0.032059107
15	0x3e1ce3aa	0.15321222
16	0xbde612c6	-0.112340495
17	0xbd9bfc09	-0.07616431
18	0xbe3b0b92	-0.18266132
19	0xbe420509	-0.18947233
20	0xbe188944	-0.14896113
21	0xbe18ccde	-0.149219
22	0xbdf5576b	-0.11979564
23	0xbdc6fef8	-0.097166
24	0xbdde9b3d	-0.10869453
25	0xbe8763b9	-0.2644327
26	0xbe3f65e6	-0.18691215
27	0xbea17ab1	-0.3153892
28	0xbe39aac4	-0.18131548
29	0x3cc5a179	0.024124848
30	0xbdc4d287	-0.096104674
31	0xbe637a11	-0.22214533
